checkpoint.pth (torch, 413464 bytes, 117 tensors)

model.nodes_coord_embedding.weight f4 [50, 2]
0	0xbe6e586b	-0.23275916
1	0x3df403de	0.119148
2	0x3f20706f	0.6267156
3	0x3f19b746	0.6004528
4	0x3e98e4e8	0.29862142
5	0x3f0f8203	0.5605776
6	0x3e587324	0.21137673
7	0xbeb2ec74	-0.34946024
8	0xbe531beb	-0.20616119
9	0xbe61f7cb	-0.22067182
10	0xbec58f0f	-0.38585708
11	0xbde469a0	-0.11152959
12	0xbea33eee	-0.3188395
13	0xbe09962d	-0.13436194
14	0x3e3f7ddf	0.1870036
15	0xbf02ee5b	-0.5114495
16	0xbe74a78c	-0.23892039
17	0x3e09ec7f	0.13469122
18	0x3ee7fc54	0.453097
19	0x3ede3868	0.4340241
20	0xbee518e3	-0.4474555
21	0x3da26f35	0.07931367
22	0xbf092c98	-0.5358367
23	0xbe689a26	-0.22715053
24	0xba37e42a	-0.0007014895
25	0xbec263a5	-0.37966648
26	0x3ec2b8ef	0.38031718
27	0x3d5221f9	0.05130193
28	0xbd4fd39f	-0.050738927
29	0xbf342af0	-0.7037802
30	0x3e499139	0.19684304
31	0xbf2d43b0	-0.6768141
32	0xbf09a439	-0.5376621
33	0x3e4fc7a9	0.20291008
34	0x3efb27b0	0.49053717
35	0x3f0eec64	0.55829453
36	0x3e81f299	0.253804
37	0xbe7ed735	-0.24886782
38	0xbc8e92b2	-0.017403934
39	0x3e8f7bb6	0.2802407
40	0x3e38a8b6	0.18033108
41	0x3e81b07c	0.2532996
42	0x3dc6b959	0.09703321
43	0x3f02058b	0.5078971
44	0xbed1cbe1	-0.4097586
45	0xbf0599cb	-0.52187794
46	0xbf3ab120	-0.7292652
47	0x3e7a0906	0.24417505
48	0x3f186ec4	0.59544015
49	0xbf1a7c65	-0.6034606
50	0x3f1d4037	0.6142611
51	0x3f0b8c74	0.5451119
52	0x3f1aa3da	0.6040627
53	0x3f05a79b	0.5220887
54	0x3f169a81	0.58829504
55	0x3e1c882e	0.15286323
56	0xbf4016c0	-0.75034714
57	0xbed45ac8	-0.4147551
58	0x3e5fb50b	0.21846406
59	0xbf035ad3	-0.5131046
60	0x3f05c45c	0.52252746
61	0xbc80abbb	-0.015706887
62	0x3d39359c	0.04521714
63	0xbde1c030	-0.11022985
64	0x3bbeb991	0.005820461
65	0xbe1f29d1	-0.15543295
66	0xbf1266e9	-0.5718828
67	0xbf2df38e	-0.6794976
68	0x3c5800e1	0.013183803
69	0xbeaa0567	-0.33207247
70	0x3ea650ae	0.3248343
71	0xbd174146	-0.036927484
72	0x3dcca577	0.099924974
73	0xbea5b863	-0.32367238
74	0x3f0f1eb0	0.559062
75	0xbeec6d83	-0.461773
76	0x3e236545	0.159566
77	0x3e535ffe	0.20642087
78	0xbe1d4d97	-0.1536163
79	0x3f324c41	0.69647604
80	0xbe1fd0b7	-0.15606962
81	0x3e50f5c7	0.20406257
82	0x3e3c2829	0.18374695
83	0x3ecfbfc1	0.40575984
84	0xbe2d6163	-0.16931681
85	0xbeb5f85c	-0.35541046
86	0x3dc6dfff	0.097106926
87	0xbe3a608a	-0.18200889
88	0x3e88f7dd	0.26751605
89	0xbe80eb07	-0.25179312
90	0xbeb08446	-0.34475917
91	0x3e82f033	0.25573882
92	0xbdd38cd1	-0.10329593
93	0xbf5cbdc0	-0.86227036
94	0x3daeca22	0.085346475
95	0xbea49b30	-0.3214965
96	0x3e114751	0.14187361
97	0x3f05c819	0.5225845
98	0xbf153bce	-0.5829438
99	0x3e939321	0.28823188

model.edges_values_embedding.weight f4 [25, 1]
0	0xbe8fb292	-0.28065926
1	0x3f25aece	0.64719856
2	0xbf9de900	-1.2336731
3	0xbf665681	-0.89975744
4	0xbedd7ec9	-0.43260792
5	0x3f13f959	0.5780235
6	0xbfa7ced2	-1.3109992
7	0xbf32f42d	-0.6990383
8	0xbf89cfef	-1.0766581
9	0x3ecd4749	0.4009345
10	0x3f4b682b	0.7945582
11	0x3f464c8a	0.7746054
12	0x3fb40cfa	1.406646
13	0xbf3b0da1	-0.7306767
14	0xbf1d12d6	-0.61356866
15	0xbf6ff123	-0.9372732
16	0xbec6335b	-0.38711056
17	0x3eda95e6	0.42692488
18	0xbf844e3a	-1.0336373
19	0xbf15923f	-0.5842628
20	0xbeea36fb	-0.45745072
21	0x3f9a8f5d	1.2075001
22	0x3f911891	1.1335622
23	0x3f4d6334	0.80229497
24	0xbf2d2154	-0.6762898

model.edges_embedding.weight f4 [3, 25]
0	0x3f200c69	0.62518936
1	0x3f8715a7	1.0553483
2	0xbdd23b37	-0.102652006
3	0x3eff0cf8	0.49814582
4	0xbfddbd58	-1.7323408
5	0xbf26b135	-0.65114146
6	0xbeaa6a09	-0.33284023
7	0xbfc0e346	-1.5069358
8	0xbeafaab6	-0.3430993
9	0x3f83eac8	1.0306025
10	0xbd9f8448	-0.077889025
11	0x3f44b5d3	0.7683994
12	0x400f2f5f	2.2372663
13	0xbefc01ee	-0.49220222
14	0x3fc44158	1.5332441
15	0xbee1d75e	-0.44109625
16	0x3f41dce5	0.75727683
17	0xbfbb75e2	-1.464535
18	0xbf2c904c	-0.6740768
19	0xbe2ec8e9	-0.17068829
20	0xbf423553	-0.75862616
21	0x3f26feb2	0.65232384
22	0xbf9e7ecc	-1.2382445
23	0x3e9807a0	0.29693317
24	0x3febc8d9	1.8420669
25	0xbf89db3d	-1.0770031
26	0x3f65060f	0.8946237
27	0x3c89222f	0.016739933
28	0x3d9f6eee	0.0778483
29	0xbffa289d	-1.9543644
30	0x3ed6e17d	0.4196891
31	0x3ea76b77	0.32699177
32	0xbf3fcc03	-0.7492067
33	0xbfb80f27	-1.4379624
34	0x3effe669	0.49980476
35	0xbf7d2539	-0.9888492
36	0xc00db058	-2.2138882
37	0x3e97fcc8	0.29685044
38	0x4007db31	2.1227534
39	0x3f402156	0.75050867
40	0x3e9b5a71	0.3034244
41	0x3fbd3290	1.4781055
42	0xbe012ed8	-0.12615526
43	0xbd88052c	-0.066416115
44	0xbf0ba4fe	-0.54548633
45	0xbf0d9d18	-0.5531783
46	0x3ff9a630	1.9503841
47	0x3f394c41	0.7238198
48	0x3fd1b219	1.6382476
49	0x3e99358b	0.29923663
50	0xbfa23857	-1.2673444
51	0xbf1c9c37	-0.61175865
52	0xbf17273c	-0.5904424
53	0x3f7fddf7	0.99948066
54	0x3e42d927	0.1902815
55	0xc00bca08	-2.184206
56	0xbd380280	-0.04492426
57	0x3d6ff757	0.05858549
58	0xbfd4cb3f	-1.6624526
59	0x3fbad985	1.4597632
60	0xbe253da3	-0.16136794
61	0xbff97289	-1.9488078
62	0x3f5bd89e	0.85877407
63	0xbf726529	-0.9468561
64	0xbf021774	-0.50817037
65	0x3f093b3e	0.5360602
66	0x3f3e6fad	0.74389154
67	0xbfa2149c	-1.266254
68	0x3f409685	0.75229675
69	0x3e306b3a	0.17228404
70	0x3da38902	0.079851165
71	0xbf700707	-0.9376072
72	0x3f8bf404	1.0933843
73	0x3e233b8d	0.15940686
74	0xc018eded	-2.3895218

model.gcn_layers.0.node_feat.U.weight f4 [50, 50]
0	0xbd9aa3e3	-0.0755079
1	0x3e420736	0.18948063
2	0x3d6f9b52	0.058497734
3	0x3d29813c	0.041383013
4	0xbda2d588	-0.07950884
5	0xbe817356	-0.25283307
6	0xbdd59b37	-0.104299955
7	0x3d4d6354	0.050143555
8	0x3dc2dddc	0.095149726
9	0x3e287b0b	0.16453187
10	0xbdebe2ef	-0.115178935
11	0xbdaab10a	-0.08334549
12	0xbd8ac2f2	-0.06775464
13	0x3e2d9a34	0.16953355
14	0xbcd659fa	-0.026165951
15	0x3d5b3955	0.053521473
16	0xbdd97207	-0.10617452
17	0xbc06a8d8	-0.008218966
18	0x3e158613	0.14601927
19	0x3d141c2a	0.03615967
20	0x3d027b9a	0.031856157
21	0xbd6d3af0	-0.057917535
22	0xbe402aa4	-0.18766266
23	0xbe16d7dc	-0.14730781
24	0xbc642af9	-0.013926261
25	0x3e4be918	0.19913137
26	0x3abab5fd	0.001424491
27	0x3e95c890	0.2925458
28	0xbe440eff	-0.19146346
29	0xbda7f2ee	-0.08200632
30	0xbd209f20	-0.039214253
31	0x3db259d3	0.08708539
32	0x3dd382fd	0.103277184
33	0xbe1f42d9	-0.15552844
34	0x3bce03b2	0.0062870616
35	0x3d85462d	0.065075256
36	0x3da8d577	0.0824384
37	0xbd97f701	-0.07420159
38	0x3e3a2da7	0.18181477
39	0x3d353c1e	0.044246785
40	0xbce8c3f2	-0.028413747
41	0x3e2605d3	0.1621316
42	0x3c8719de	0.016491827
43	0xbd432b4b	-0.04764871
44	0x3d93fceb	0.07225975
45	0xbd7d50f4	-0.06184478
46	0xbde46a5d	-0.111531
47	0x3d8dfa94	0.069325596
48	0x3b352b55	0.0027644236
49	0x3c9a8ae1	0.01886505
50	0x3db4bee5	0.08825473
51	0xbe12be40	-0.14330387
52	0x3bd7ec09	0.006589417
53	0x3d2e3c60	0.042538047
54	0x3d3f8e8a	0.046766795
55	0x3e3f9356	0.18708548
56	0x3ce79c67	0.02827282
57	0xbdc83381	-0.097754486
58	0x3e088bb2	0.1333454
59	0xbdb700aa	-0.089356735
60	0x3d4c1ca6	0.04983201
61	0x3dbaab12	0.0911466
62	0xbe267b15	-0.1625789
63	0xbd946090	-0.0724498
64	0xbe2940be	-0.16528603
65	0x3ca8e2d8	0.02061598
66	0x3e53f1be	0.20697686
67	0x3df7c3cc	0.12097892
68	0xbd56e1b2	-0.052461334
69	0x3dc04abe	0.09389256
70	0x3d01063c	0.031500086
71	0x3e19474f	0.14968608
72	0x3caf323e	0.021386262
73	0x3e050867	0.12991486
74	0xbe519cb8	-0.2046994
75	0xbe1cf32f	-0.15327142
76	0xbdd1ea15	-0.10249726
77	0x3d18dd9a	0.03732071
78	0x3dc0f91f	0.09422516
79	0xbe0fe4be	-0.14052102
80	0xbe1cedfb	-0.15325157
81	0xbdd5b093	-0.104340695
82	0xbe228e85	-0.1587468
83	0xbc37e4a2	-0.011223944
84	0xbe2b256b	-0.16713493
85	0xbe4c0c39	-0.19926538
86	0xbd3c7591	-0.046010558
87	0xbdcebbe0	-0.10094428
88	0xbdd05424	-0.101722986
89	0x3c5e8fa7	0.013584054
90	0x3dad48e6	0.0846117
91	0x3d2a93ef	0.041644987
92	0x3d12e855	0.0358661
93	0x3c802787	0.015643848
94	0xbcd05b47	-0.02543415
95	0x3e1e5f62	0.15466073
96	0x3dc67754	0.09690729
97	0xbdb6d546	-0.089273974
98	0x3d8e4781	0.06947232
99	0x3d8b12c9	0.06790692
100	0x3d8045bc	0.06263301
101	0xbcc3873e	-0.0238682
102	0xbd7b8642	-0.061407335
103	0xbde4c500	-0.11170387
104	0xbce72518	-0.02821593
105	0x3e79309d	0.24334951
106	0x3d12d7bd	0.035850275
107	0x3df2d7a7	0.11857539
108	0x3e284e6c	0.16436166
109	0xbcf78e21	-0.03021914
110	0x3c0a791b	0.008451725
111	0x3e7a16c1	0.24422742
112	0xbe0576bc	-0.13033575
113	0xbe86e6cb	-0.26347956
114	0x3c688a4c	0.014193129
115	0x3d5f0f23	0.054457795
116	0x3e24becf	0.16088413
117	0xbde351b8	-0.11099571
118	0xbda76ede	-0.08175443
119	0x3dad0ca6	0.08449678
120	0xbe0e7d97	-0.13915096
121	0xbe03991b	-0.12851374
122	0x3da8ad7a	0.08236213
123	0x3dbd0618	0.09229678
124	0xbd8cfdd8	-0.06884354
125	0x3d806efb	0.06271168
126	0xbb8f55d5	-0.0043742456
127	0xbe817e71	-0.2529178
128	0x3e1320fb	0.1436805
129	0xbd9a2574	-0.07526675
130	0xbd91122e	-0.070835456
131	0x3d5bf77b	0.053702813
132	0xbd854280	-0.065068245
133	0x3e05dfe4	0.13073689
134	0x3de940bf	0.113893025
135	0xbe5fd20b	-0.21857469
136	0x3cc17b3e	0.023618337
137	0xbe43026b	-0.19043891
138	0x3d9fb719	0.07798595
139	0x3d861ff0	0.0654906
140	0xbd88ca07	-0.06679159
141	0x3dcd6ecc	0.100308985
142	0xbb1809ff	-0.0023199318
143	0x3ddc5c30	0.10759771
144	0xbc8cac32	-0.017171953
145	0xbd2938f7	-0.04131409
146	0xbd760651	-0.060064618
147	0xbe0e103e	-0.13873383
148	0xbded9cad	-0.11602149
149	0x3dc5a990	0.09651482
150	0xbe504314	-0.20338088
151	0x3ced0588	0.028933302
152	0xbe0d6039	-0.13806237
153	0x3dd7d847	0.105392985
154	0xbd7bf038	-0.061508387
155	0xbd8c8760	-0.06861758
156	0xbddbfd3e	-0.107416615
157	0x3e362964	0.17789227
158	0xbd363c95	-0.04449137
159	0x3deac07c	0.11462495
160	0xbe13a791	-0.1441939
161	0xbc542bf0	-0.012949929
162	0x3ddf3be7	0.10900097
163	0x3e3c2c75	0.18376334
164	0xbc83f831	-0.016109558
165	0xbdca5a6e	-0.09880529
166	0xbd74ad34	-0.059735492
167	0xbd794286	-0.060854457
168	0x3ccdac22	0.025106493
169	0xbe170f43	-0.14751916
170	0x3e1b306e	0.15155193
171	0x3dbffecb	0.0937477
172	0x3ceb3764	0.028712936
173	0xbe32a434	-0.17445451
174	0x3d87a4a3	0.06623199
175	0x3d7f3311	0.06230456
176	0x3d6ba32d	0.057528663
177	0x3e0e8dd7	0.13921295
178	0xbcf0d368	-0.029397681
179	0x3e004818	0.12527502
180	0x3ceb4b03	0.028722292
181	0x3e190d83	0.1494656
182	0xbd7f2da1	-0.062299374
183	0x3bf3e74d	0.0074433447
184	0xbd0a57ec	-0.033775255
185	0x3bf716f9	0.0075405804
186	0x3e2457bf	0.16049097
187	0x3e0546ed	0.13015337
188	0x3da4e289	0.08051021
189	0xbe31eb74	-0.17374974
190	0xbd9d07cb	-0.07667502
191	0x3df247aa	0.11830075
192	0x3d81eea5	0.06344346
193	0x3e047ee5	0.12939031
194	0x3dcdfdc8	0.100581706
195	0xbe446b17	-0.19181477
196	0x3da8cb6f	0.08241927
197	0xbc05213d	-0.0081256
198	0x3daf7a98	0.08568305
199	0xbe5525f6	-0.20815262
200	0x3d9270cb	0.0715042
201	0x3dd2c459	0.102913566
202	0xbd8169ed	-0.06319032
203	0xbdadd060	-0.0848701
204	0x3d8bb2b1	0.06821192
205	0x3b9a9007	0.0047168764
206	0x3e394f89	0.18096747
207	0xbe0c2c96	-0.13688883
208	0x3e140806	0.14456186
209	0xbddd74dd	-0.108133055
210	0x3e80dbfc	0.25167835
211	0x3de80b56	0.11330287
212	0x3da14a12	0.07875456
213	0x3d619eab	0.05508296
214	0xbd15a051	-0.036529843
215	0xbdf3288c	-0.11872968
216	0x3d361dc8	0.044461995
217	0x3c27c2d2	0.01023932
218	0xbc958143	-0.018250113
219	0x3d3ff6ca	0.046866216
220	0xbcffb2e0	-0.031213224
221	0x3dac9942	0.08427669
222	0x3dbfce24	0.0936549
223	0x3e5a4f9b	0.2131943
224	0xbdb9f1fa	-0.090793565
225	0x3dc1e4aa	0.09467442
226	0x3c963662	0.018336479
227	0xbd92ae2e	-0.071621284
228	0x3c8ea589	0.017412918
229	0xbcd24c22	-0.025671069
230	0xbe6ee5c6	-0.23329839
231	0xbdc23226	-0.09482221
232	0x3d5f5809	0.054527316
233	0xbd0d8e04	-0.034559265
234	0x3d128ed2	0.035780735
235	0xbe33e5f7	-0.17568193
236	0xbdc3bb8e	-0.095572576
237	0xbe7ba0f8	-0.24573123
238	0xbd4a51da	-0.049394466
239	0xbd811ad2	-0.06303944
240	0x3e88ec74	0.267429
241	0xbdac5433	-0.08414497
242	0x3e06f224	0.13178307
243	0xbdde36a0	-0.10850263
244	0xbe442a0b	-0.19156663
245	0x3dcf3822	0.10118128
246	0x3b84777e	0.004042565
247	0xbdfe08cc	-0.124040216
248	0x3db91e53	0.09038987
249	0x3e89835b	0.2685803
250	0x3d95db63	0.07317235
251	0x3db9ab85	0.09065918
252	0xb9ce318e	-0.00039328303
253	0x3e22f71a	0.15914574
254	0xbe301a3e	-0.1719751
255	0xbd7fe9e4	-0.062478915

model.gcn_layers.0.node_feat.U.bias f4 [50]
0	0x3d2e1e45	0.042509336
1	0xbcf4e39b	-0.029893687
2	0x3c1201f7	0.008911601
3	0x3d578952	0.052621193
4	0x3cae4299	0.02127199
5	0x3dd63928	0.104601204
6	0x3d14473b	0.036200743
7	0x3cccc226	0.024994921
8	0xbca029b0	-0.019551128
9	0xbdd6394c	-0.10460147
10	0x3bbfaddb	0.0058495826
11	0x3d06c45d	0.03290211
12	0xbda9639c	-0.08270952
13	0x3da9a6c3	0.082837604
14	0x3dca249b	0.09870263
15	0x3d926c3b	0.071495496
16	0xbdd6ae6b	-0.10482486
17	0x3db1d540	0.08683252
18	0x3d1f775f	0.0389322
19	0xbd85face	-0.06541978
20	0xbe199d82	-0.1500149
21	0xbcd446eb	-0.025912723
22	0xbd49b2ae	-0.049242668
23	0xbd933731	-0.07188261
24	0xbe9f6a95	-0.31136003
25	0xbd8c6f56	-0.06857173
26	0x3d1dcf8b	0.038528007
27	0xbd5e0c6f	-0.054211076
28	0x3dfd704f	0.12374937
29	0x3e0f4d8e	0.13994429
30	0x3dee585f	0.11637949
31	0x3dc66532	0.0968727
32	0x3d27f905	0.041008968
33	0x3d5e0de3	0.054212462
34	0x3bf1e8dd	0.007382496
35	0x3d822c66	0.063561246
36	0x3e08caa7	0.13358556
37	0xbc2a9659	-0.010411822
38	0x3ad6415a	0.001634638
39	0x3dada6a4	0.0847905
40	0x3db1978e	0.08671485
41	0xbdf9ab37	-0.1219086
42	0x3d8d8a71	0.06911171
43	0xbda26786	-0.07929902
44	0xbc8220cc	-0.01588478
45	0xbe2c4846	-0.16824445
46	0x3d806079	0.06268401
47	0xbde0a00d	-0.10968027
48	0xbd0e2ca8	-0.034710556
49	0x3dfd4a11	0.12367643

model.gcn_layers.0.node_feat.V.weight f4 [50, 50]
0	0x3e15a11b	0.14612238
1	0xbcba1fd1	-0.02272025
2	0x3db9cd0b	0.09072312
3	0x3d9a9033	0.07547035
4	0x3cac73b1	0.02105126
5	0x3e249c55	0.16075261
6	0x3ddd6dce	0.10811959
7	0x3d0e72f8	0.03477761
8	0x3d86c3e1	0.0658033
9	0xbe0d2fe4	-0.137878
10	0x3e0cf398	0.13764799
11	0x3e0871d1	0.13324668
12	0x3d23eb05	0.040019054
13	0xbdd0e486	-0.101998374
14	0x3e214bf4	0.1575163
15	0x3df36d6f	0.11886107
16	0xbd8a27f2	-0.067459
17	0x3b9d26c7	0.0047958824
18	0x3cdd0ea9	0.02698453
19	0xbc47d557	-0.01219686
20	0xbdf03782	-0.11729337
21	0xbcf4f727	-0.029903008
22	0x3d2f8e4c	0.042860314
23	0x3da47f9a	0.080321506
24	0x3d495fa7	0.049163487
25	0x3d6f171c	0.05837165
26	0xbdc4698a	-0.095904425
27	0xbdea0a8a	-0.114277914
28	0xbd3508c0	-0.044197798
29	0xbc1c20b0	-0.009529278
30	0xbe31843a	-0.17335597
31	0x3dc4de3e	0.09612702
32	0xbd18c8af	-0.03730076
33	0x3d6b001a	0.057373144
34	0x3e1619a5	0.1465822
35	0x3c0cd3fb	0.008595462
36	0xbdfd8b62	-0.12380101
37	0xbc4d3b58	-0.012526356
38	0xbe342b9e	-0.17594764
39	0xbdba7521	-0.09104372
40	0x3da43d3f	0.08019494
41	0x3c32cdc7	0.010913319
42	0xbb6b3c56	-0.0035894117
43	0x3d87e265	0.06634978
44	0x3d1d834f	0.038455304
45	0xbd637b37	-0.05553743
46	0xbb6b4d1f	-0.0035904122
47	0x3d4212fc	0.047381386
48	0x3dbb7bdb	0.09154483
49	0x3dd970ef	0.106172435
50	0xbe75b815	-0.23996003
51	0xbd94bad9	-0.07262201
52	0x3d8fa754	0.07014337
53	0x3d6d976f	0.058005746
54	0x3dc82b15	0.09773842
55	0xbda0e088	-0.07855326
56	0xbe0796c5	-0.13241108
57	0x3e6f033f	0.23341082
58	0xbcb4f740	-0.022090554
59	0xbd952e47	-0.07284217
60	0xbe79960e	-0.24373648
61	0xbca9c732	-0.020724867
62	0xbd2e4411	-0.042545382
63	0xbc5a96f4	-0.013341654
64	0x3c98cca8	0.018652275
65	0x3e1f21a5	0.15540178
66	0xbda27f81	-0.07934476
67	0x3ddecd1a	0.10878964
68	0x3d83110b	0.06399735
69	0x3cdf503d	0.02725994
70	0x3d66f4c0	0.056385756
71	0xbd4f2cf4	-0.05057998
72	0x3e02bf13	0.12768202
73	0xbe5ee558	-0.21767175
74	0x3e2753c4	0.16340548
75	0x3c0d7085	0.008632784
76	0x3cfc23e6	0.030778836
77	0xbd2fd24e	-0.04292517
78	0xbdd5e234	-0.104435354
79	0xbd142360	-0.03616655
80	0x3e455e31	0.19274212
81	0x3e654143	0.22388177
82	0x3e1d8291	0.15381838
83	0x3d50e848	0.05100277
84	0xbcb1fb3d	-0.021726245
85	0x3dfb916d	0.12283597
86	0x3ce75e44	0.028243192
87	0x3dda8c69	0.10671312
88	0xbc90e2e9	-0.017686324
89	0xbc36f647	-0.0111671155
90	0xbd96a75d	-0.07356141
91	0x3d466d5c	0.048444137
92	0xbdee299d	-0.11629031
93	0x3d85887f	0.06520175
94	0x3e55e1eb	0.20886962
95	0xbdf247f0	-0.11830127
96	0x3d8b7c70	0.06810844
97	0x3c8ffaf1	0.017575713
98	0xbd33a2cb	-0.043856423
99	0xbe087535	-0.13325961
100	0xbe751349	-0.23933138
101	0x3e0e3c48	0.13890183
102	0x3d526a16	0.051370703
103	0x3cd0fd96	0.025511544
104	0xbd8d60b3	-0.069032095
105	0xbdacc46d	-0.08435903
106	0x3d286146	0.041108392
107	0x3d9e7839	0.077377744
108	0xbe21c2b1	-0.15796925
109	0x3e160330	0.14649653
110	0xbdbd09ef	-0.0923041
111	0xbd07a558	-0.03311667
112	0x3e247213	0.16059141
113	0x3d8a987f	0.067673676
114	0xbd921325	-0.07132558
115	0x3e29a55f	0.1656699
116	0xbda0e583	-0.07856276
117	0x3e309e76	0.17247948
118	0x3c8acf4b	0.016944548
119	0xbd9c5ba2	-0.07634665
120	0xbb08aa65	-0.0020853516
121	0x3de18ce9	0.110132046
122	0xbe070a4d	-0.13187523
123	0x3ae8fe76	0.001777603
124	0xbca97622	-0.020686213
125	0xbcb93333	-0.022607422
126	0x3cb59012	0.022163425
127	0x3cf93d51	0.030424746
128	0xbd954e11	-0.072902806
129	0xbd327a3f	-0.043573614
130	0x3df4827a	0.11938949
131	0x3d4484e5	0.0479783
132	0xbde71236	-0.1128277
133	0x3d3d8012	0.046264715
134	0xbb6f481d	-0.0036511489
135	0x3d886b1c	0.066610545
136	0x3df5c4c5	0.120004214
137	0x3e031de2	0.12804368
138	0x3d891b45	0.066946544
139	0x3a5ef8c5	0.00085056975
140	0xbe145640	-0.14486027
141	0xbdac00cb	-0.08398589
142	0xbd5b8f0a	-0.05360321
143	0xbc6f5635	-0.014607956
144	0x3e4884d7	0.19581924
145	0x3d0f56e7	0.034994986
146	0xbd25f65f	-0.04051816
147	0x3bcf02c8	0.00631747
148	0x3daf78b3	0.085679434
149	0xbe7aa5f0	-0.24477363
150	0x3e21a663	0.15786128
151	0xbca02bcf	-0.01955214
152	0xbd004d71	-0.031323854
153	0xbe14ede9	-0.1454388
154	0x3dc5e4ee	0.096628055
155	0x3e2a0e35	0.16606982
156	0x3e156399	0.14588775
157	0x3d7fa652	0.062414475
158	0x3e59bda9	0.21263756
159	0xbdac93ca	-0.08426626
160	0x3e68b46a	0.22725073
161	0x3cec7253	0.028863108
162	0xbbde16e8	-0.006777633
163	0xbd3f86d7	-0.046759453
164	0xbdd1dca3	-0.10247161
165	0xbe37cf7d	-0.17950244
166	0xbd0304d6	-0.031987034
167	0x3c42df9e	0.011894135
168	0xbd28d34d	-0.041217137
169	0xbdf79236	-0.120884344
170	0xbd96f60f	-0.07371151
171	0xbc147d5c	-0.009063091
172	0x3db92e6d	0.09042058
173	0x3cf2aafa	0.029622544
174	0xbe434699	-0.190699
175	0xbe38c66f	-0.18044446
176	0x3b8d401e	0.004310622
177	0xbd924294	-0.07141605
178	0xbd84480a	-0.06459053
179	0xbd6f2086	-0.058380626
180	0xbc3f2a03	-0.011667731
181	0xbdf4d7f4	-0.11955252
182	0xbca2c3c9	-0.019868748
183	0x3deb70a1	0.11496092
184	0x3da22885	0.07917885
185	0xbe0e1af7	-0.13877474
186	0xbd84d6d2	-0.06486286
187	0xbe0bd383	-0.13654904
188	0xbcb9a456	-0.02266137
189	0xbd8d01cd	-0.06885109
190	0x3e308ced	0.17241259
191	0xbd241b45	-0.04006507
192	0x3dfbbfe1	0.12292457
193	0xbd6b3b03	-0.057429325
194	0x3cd400c9	0.02587928
195	0x3e3702ee	0.17872211
196	0xbdf66e76	-0.120327875
197	0x3d385e41	0.045011763
198	0x3df1ec3b	0.118126355
199	0x3d621f66	0.055205725
200	0xbdedb79a	-0.11607285
201	0x3d2f9776	0.042869054
202	0xbc0a79d6	-0.0084518995
203	0x3e1525e6	0.14565238
204	0xbd066e11	-0.03281981
205	0xbe04a8a7	-0.12954961
206	0xbcf34980	-0.029698133
207	0xbc99078d	-0.018680358
208	0xbd725813	-0.059166025
209	0x3d9d2103	0.07672312
210	0xbd84d06c	-0.06485066
211	0xbdb5701f	-0.08859276
212	0x3e1b1c0b	0.15147416
213	0x3e168238	0.14698112
214	0x3c59659b	0.013268854
215	0x3dd7e9af	0.105426185
216	0xbde9241e	-0.11383842
217	0xbd56b934	-0.052422717
218	0x3d4e86b2	0.050421424
219	0xbd749cc2	-0.05971981
220	0x3da1adbb	0.078944646
221	0x3d230594	0.03980024
222	0xbd9523ad	-0.07282195
223	0xbd24b12a	-0.04020802
224	0x3c206709	0.0097901905
225	0x3d15450c	0.0364428
226	0xbdb4fe5e	-0.08837579
227	0xbc5d6e19	-0.013515019
228	0xbe24fb12	-0.161114
229	0x3c3558d7	0.011068544
230	0x3e3429ea	0.17594114
231	0xb8a0c872	-7.6667304e-05
232	0x3d95d747	0.073164515
233	0xbd809ac9	-0.06279523
234	0x3d11b93b	0.03557704
235	0x3e4621ed	0.19348879
236	0xbcd701b0	-0.026245922
237	0x3e1a3f7b	0.15063278
238	0xbdf57747	-0.11985641
239	0xbe56f192	-0.2099059
240	0xbdd31520	-0.10306764
241	0x3d56d8d5	0.05245288
242	0x3db4c818	0.08827227
243	0x3e265805	0.16244514
244	0x3e1a5aaf	0.15073656
245	0xbdebd20c	-0.11514673
246	0x3d8a9d7d	0.0676832
247	0x3d55c76a	0.05219213
248	0xba098906	-0.00052465533
249	0xbe561911	-0.20908
250	0xbcb93884	-0.022609957
251	0xbd877e05	-0.06615833
252	0xbc0b3e4f	-0.008498742
253	0xbccef9b4	-0.025265552
254	0x3e3b9f0f	0.18322395
255	0xbdb73fc9	-0.08947713

model.gcn_layers.0.node_feat.V.bias f4 [50]
0	0xbce966fe	-0.028491493
1	0xbc87b5c3	-0.016566163
2	0xbd305a99	-0.04305515
3	0x3d0c6db3	0.034284305
4	0x3d296eb0	0.041365325
5	0x3c07fdc0	0.008300245
6	0x3df62d96	0.120204136
7	0x3d4e5e1b	0.050382715
8	0x3e0470b2	0.12933615
9	0xbe58dfa0	-0.21179056
10	0xbe21cb37	-0.15800177
11	0x3cfd8a04	0.0309496
12	0x3e1fc6f1	0.15603234
13	0xbd93be0d	-0.07213984
14	0xbd1fa67a	-0.038977124
15	0xbd36c553	-0.044621777
16	0xbd273955	-0.04082616
17	0x3e005d20	0.12535524
18	0x3cf9d72b	0.030498108
19	0xbd7bbeb6	-0.061461173
20	0xbd0fa56e	-0.035069875
21	0x3c1bc9df	0.009508579
22	0xbe0a1a38	-0.13486564
23	0xbd6d8881	-0.05799151
24	0xbd39873d	-0.04529499
25	0x3db8fa6c	0.09032139
26	0x3cf4a468	0.029863551
27	0xbdbccb41	-0.09218455
28	0xbd91dd67	-0.07122307
29	0xbd5132fa	-0.051074006
30	0xbc52786f	-0.012846096
31	0xbd1f211c	-0.038849935
32	0xbd24f14d	-0.040269185
33	0x3c0d0092	0.008606093
34	0x3d39f8b4	0.045403197
35	0xbd3dd6cc	-0.046347424
36	0x3d9f5631	0.077801116
37	0xbdf3bcbe	-0.11901234
38	0x3c8e4a06	0.017369282
39	0xbdc5b47b	-0.096535645
40	0x3dae60f8	0.08514589
41	0x3ca5aaaf	0.02022299
42	0x3d068307	0.0328398
43	0xbded3043	-0.11581471
44	0x3cc45824	0.02396781
45	0xbe719f18	-0.23595846
46	0xbd7a5682	-0.061117657
47	0xbdfbf081	-0.12301732
48	0xbda99c6f	-0.082817905
49	0xbd90ef87	-0.07076936

model.gcn_layers.0.edge_feat.U.weight f4 [50, 50]
0	0x3debcb20	0.115133524
1	0x3d8c44ff	0.068490975
2	0x3de14dc5	0.110011615
3	0xbd9c33d1	-0.07627071
4	0xbd4afa41	-0.049555067
5	0xbdec0737	-0.115248136
6	0x3dc84cad	0.0978025
7	0xbd40d9d3	-0.047082733
8	0xbdd756c8	-0.10514599
9	0x3dabd45c	0.08390114
10	0x3e119d80	0.14220238
11	0x3dcfa996	0.10139768
12	0x3e1d1a09	0.15341963
13	0xbd3f25c6	-0.046666883
14	0xbe0c583c	-0.13705534
15	0xbd913519	-0.07090206
16	0x3c3578dd	0.011076179
17	0xbd12de30	-0.035856426
18	0xbcadc21f	-0.021210728
19	0x3dd155d6	0.1022145
20	0x3d9784f2	0.07398404
21	0xbcd4f93e	-0.025997754
22	0xbd50021d	-0.050783265
23	0x3b699983	0.0035644479
24	0x3d73a684	0.059484974
25	0xbe2da6c9	-0.16958155
26	0xbe1f7e1a	-0.15575448
27	0xbdb664f2	-0.089059725
28	0x3dcd9722	0.10038592
29	0x3e090a9a	0.1338295
30	0xbe41498a	-0.18875709
31	0xbe3ae0bd	-0.18249793
32	0x3ddba959	0.1072566
33	0xbd4497dc	-0.047996387
34	0x3e3fb39b	0.18720858
35	0x3d0c6dc7	0.03428438
36	0xbb1e2531	-0.0024131055
37	0x3e8c503d	0.27404967
38	0xbdfdcbb1	-0.12392367
39	0xbda79b03	-0.08183863
40	0x3db6c013	0.08923354
41	0xbe0003e3	-0.12501483
42	0xbe6240f4	-0.2209509
43	0x3d896f33	0.06710663
44	0xbd906f83	-0.07052519
45	0xbba61d4e	-0.0050694114
46	0xbd61285d	-0.054970134
47	0x3db296d7	0.08720177
48	0x3d3a70ca	0.04551772
49	0xbd042d44	-0.03226973
50	0x3e974c8d	0.2955059
51	0xbe5f9090	-0.2183249
52	0x3e8104c0	0.25198936
53	0x3e8e28b4	0.2776543
54	0x3ec29347	0.3800299
55	0xbec471ca	-0.38368064
56	0x3e9f109b	0.31067356
57	0x3ec21aa4	0.3791095
58	0x3ec5b5d1	0.38615277
59	0xbe96587d	-0.29364386
60	0xbec413aa	-0.38296252
61	0xbec0f763	-0.3768874
62	0xbecc97f4	-0.3995968
63	0x3e81078e	0.25201076
64	0x3eac4ab1	0.33650735
65	0x3e4e8ac7	0.20170127
66	0x3f163fb8	0.5869098
67	0xbe8dcd82	-0.27695853
68	0x3ead7b31	0.3388305
69	0x3e5aa5f7	0.21352373
70	0x3e8a15ab	0.26969656
71	0xbe979303	-0.2960435
72	0xbecc459d	-0.3989686
73	0xbebbfc73	-0.3671604
74	0x3ee42514	0.44559538
75	0x3e5c988b	0.21542566
76	0x3dcc7802	0.09983827
77	0x3db1b79c	0.08677599
78	0xbc419eae	-0.011817617
79	0x3dddc0d5	0.108277954
80	0x3d992863	0.07478406
81	0xbd6873f5	-0.05675121
82	0x3d360f16	0.04444798
83	0x3ec80832	0.39068753
84	0xbe225530	-0.15852809
85	0xbdb02b5e	-0.08602022
86	0x3c840087	0.016113533
87	0xbcaae63f	-0.020861743
88	0x3de6aba3	0.11263206
89	0x3d42737b	0.047473412
90	0xbe898e9b	-0.26866612
91	0x3cb2e6a4	0.021838494
92	0x3e32b59e	0.17452094
93	0xbe326216	-0.1742023
94	0x3d9c670b	0.076368414
95	0x3df04f9e	0.11733936
96	0xbca2e437	-0.019884212
97	0xbe0c527b	-0.13703339
98	0xbc5a8350	-0.013336971
99	0x3dbfc6d4	0.09364095
100	0x3dc8ca57	0.09804218
101	0xbe18c409	-0.14918531
102	0xbb23cbf2	-0.0024993387
103	0x3e0f0ae1	0.13968994
104	0x3df13942	0.11778499
105	0xbb48fca3	-0.0030668161
106	0xbb68152c	-0.003541301
107	0xbce7fca5	-0.028318712
108	0xbd43db22	-0.047816403
109	0x3d8e6c0f	0.06954204
110	0x3d8ebae0	0.06969237
111	0x3db20989	0.08693225
112	0xbdf19c62	-0.11797406
113	0x3e06e89b	0.1317467
114	0xbd020acb	-0.031748574
115	0xbd75f2e5	-0.060046095
116	0x3e3cbb38	0.18430793
117	0x3c94e8dd	0.018177444
118	0x3daa5841	0.08317614
119	0x3dfcd2df	0.12344908
120	0x3dc1e0df	0.09466719
121	0xbde0f616	-0.10984437
122	0xba49fbd1	-0.0007705065
123	0x3dabe08c	0.08392438
124	0x3cbdfe8c	0.023192666
125	0xbda85ac4	-0.08220437
126	0x3c7b323b	0.0153318
127	0x3e09bc33	0.13450699
128	0xbda1e7c9	-0.07905538
129	0x3d81e841	0.06343127
130	0x3d2a7081	0.0416112
131	0xbcd346fa	-0.02579068
132	0xbdda2b7d	-0.10652826
133	0x3d015a0a	0.03158001
134	0xbe41a67e	-0.18911168
135	0x3d46a2a1	0.04849494
136	0x3d6ae180	0.05734396
137	0x3b1857cf	0.0023245697
138	0x3dbfa82b	0.09358247
139	0x3e401897	0.1875938
140	0x3d9c18b9	0.07621903
141	0x3e105890	0.14096284
142	0xbd472720	-0.048621297
143	0xbc60516c	-0.0136912875
144	0x3d0647a3	0.03278316
145	0xbd8a848b	-0.06763562
146	0xbcec2ade	-0.028829034
147	0xbe0ec2c1	-0.1394148
148	0x3e1a67e3	0.15078692
149	0x3dab9049	0.083771296
150	0x3d1c7dc4	0.038205877
151	0xbd94424d	-0.07239208
152	0xbd6f57e9	-0.058433447
153	0xbe0d193f	-0.13779162
154	0xbdddc621	-0.10828806
155	0xbd5fcd5f	-0.054639217
156	0xbe0eaeaf	-0.13933824
157	0xbdbdc7fd	-0.0926666
158	0x3d717225	0.058946747
159	0x3da1912b	0.07889017
160	0xbdd77415	-0.10520188
161	0xbdaacb3b	-0.083395444
162	0x3dea840c	0.11450967
163	0x3cd029c3	0.025410539
164	0xbc259a14	-0.010107536
165	0x3deeb784	0.116560966
166	0x3bf520ae	0.0074807024
167	0x3debd97a	0.1151609
168	0xbd9a48ba	-0.07533403
169	0x3d03614b	0.032075208
170	0xbdc3c8cf	-0.095597856
171	0x3da79861	0.08183361
172	0xbd4a6680	-0.049414158
173	0xbd846cc3	-0.06466057
174	0xbe056619	-0.13027228
175	0xbd28a69d	-0.04117452
176	0x3da01b19	0.078176685
177	0x3da4113a	0.08011098
178	0xbdb104ae	-0.08643471
179	0xbd92b82b	-0.071640335
180	0x3e1741c6	0.14771184
181	0xbd3ea23d	-0.04654144
182	0xbe65116f	-0.22369932
183	0x3e039306	0.12849054
184	0xbbe8a64a	-0.0070999013
185	0x3ca163fb	0.019700995
186	0xbd7442fe	-0.0596342
187	0xbd693925	-0.056939263
188	0xbd2da632	-0.042394824
189	0x3d77e7ed	0.060523916
190	0xbe01199a	-0.12607422
191	0x3caf423c	0.021393888
192	0x3e611680	0.2198124
193	0xbdee8eaa	-0.11648305
194	0xbce6ef44	-0.028190263
195	0x3cd73c6d	0.02627393
196	0x3e07873f	0.13235186
197	0x3c157cfc	0.009124037
198	0x3e12c70a	0.1433374
199	0x3dc9cf59	0.098540016
200	0x3e19cb1f	0.15018891
201	0xbd5c624b	-0.053804677
202	0x3e4a018d	0.19727154
203	0x3b21b355	0.002467354
204	0x3d020aaa	0.03174845
205	0xbd949c41	-0.072563656
206	0x3dbc114b	0.09182986
207	0xbd34aee9	-0.04411212
208	0xbc8695e7	-0.0164289
209	0xbdc6329b	-0.09677621
210	0xbcdf3ba8	-0.027250126
211	0x3c8885c0	0.01666534
212	0xbe387cf6	-0.18016419
213	0x3e6b5220	0.22980547
214	0x3d249c11	0.0401879
215	0x3e384268	0.17994082
216	0x3e2269a0	0.15860605
217	0xbe2a3d6e	-0.16624996
218	0x3c838c94	0.016058244
219	0x3d4aa70e	0.049475722
220	0x3e0d4a4e	0.13797876
221	0xbe2fa7b5	-0.17153819
222	0xbe1c3f3f	-0.15258501
223	0xbd8e2298	-0.06940192
224	0x3e08df35	0.13366397
225	0x3d511d49	0.05105332
226	0xbdf10bd1	-0.11769832
227	0xb9ec0c69	-0.00045022674
228	0xbdbcfe2a	-0.092281654
229	0x3d28db9b	0.041225057
230	0x3de30e55	0.11086718
231	0xbdff0187	-0.12451463
232	0x3d3c2d9d	0.045941938
233	0xbc253555	-0.010083516
234	0xbe065a62	-0.13120416
235	0x3d033594	0.032033518
236	0x3dd02ecf	0.10165178
237	0xbd94c7fb	-0.07264706
238	0xbdcb84b8	-0.099374235
239	0xbcf69a96	-0.03010301
240	0xbdfc4478	-0.12317747
241	0xbcd00457	-0.025392694
242	0xbcb71ca5	-0.022352526
243	0xbca208ca	-0.019779582
244	0x3d3e0677	0.046392884
245	0x3cc7445a	0.024324585
246	0x3de235b3	0.110453986
247	0x3df353da	0.11881228
248	0x3d71a672	0.058996625
249	0x3cddbda8	0.027067974
250	0x3d846cca	0.06466062
251	0x3ca1f6a1	0.019770922
252	0x3c8a41e2	0.016877118
253	0xbd6a2876	-0.057167493
254	0xbd93eb7c	-0.072226495
255	0xbdcdb836	-0.10044901

model.gcn_layers.0.edge_feat.U.bias f4 [50]
0	0x3c62807f	0.013824581
1	0xbf14d7f3	-0.5814201
2	0xba41d24a	-0.0007393701
3	0x3e81d20b	0.25355563
4	0xbd90c966	-0.07069664
5	0xbeaa44e0	-0.33255672
6	0xbd762f09	-0.06010345
7	0xbe2cee11	-0.1688769
8	0x3c99d51b	0.018778374
9	0xbe9f5b9c	-0.3112458
10	0x3b35b0c2	0.0027723764
11	0xbcce293a	-0.025166143
12	0xbd2d1291	-0.042254034
13	0x3e45b4c7	0.19307242
14	0x3d7a4388	0.06109956
15	0xbd9585dc	-0.07300922
16	0xbd7fa6d5	-0.062414963
17	0x3e0077e4	0.12545735
18	0xbe926944	-0.28595936
19	0x3dbbb62e	0.091656074
20	0x3e8d2571	0.27567628
21	0xbe21d224	-0.15802819
22	0x3eb1401a	0.34619218
23	0xbde76109	-0.11297805
24	0xbf808945	-1.0041891
25	0xbf2f1893	-0.6839687
26	0xbf1a1710	-0.6019144
27	0x3dc350c9	0.09536893
28	0xbde56b80	-0.112021446
29	0xbdc2f004	-0.095184356
30	0x3eaa1244	0.3321706
31	0xbe0df872	-0.13864306
32	0xbe685f96	-0.22692713
33	0xbeeebf62	-0.46630388
34	0xbe0101ea	-0.12598386
35	0x3d972818	0.07380694
36	0xbdaf9b11	-0.085744984
37	0x3e925f2f	0.28588244
38	0x3d847227	0.06467085
39	0xbd9d23f4	-0.07672873
40	0xbe565963	-0.20932536
41	0xbf005765	-0.50133353
42	0x3de0fd58	0.109858215
43	0x3e713f86	0.23559389
44	0xbecf445f	-0.4048185
45	0xbf1344d4	-0.575269
46	0x3ec445e9	0.38334587
47	0xbdc50847	-0.096207194
48	0x3de25c5e	0.11052774
49	0x3ecdbd1d	0.40183344

model.gcn_layers.0.edge_feat.V.weight f4 [50, 50]
0	0x3b11077a	0.00221297
1	0x3dffaf38	0.12484592
2	0x3deb8816	0.11500566
3	0x3dce2c99	0.100671
4	0xbd09a3ea	-0.033603586
5	0x3abe96aa	0.0014540751
6	0xbe10cd6f	-0.14140867
7	0xbda384bc	-0.079843014
8	0x3d8fda25	0.0702403
9	0x3dfc9434	0.12332955
10	0xbdcd7ce5	-0.10033587
11	0xbc4fb577	-0.012677542
12	0x3de8eaed	0.113729335
13	0xbd208472	-0.03918881
14	0x3db6ad11	0.089197285
15	0x3b8c9c38	0.0042910837
16	0xbc60aab7	-0.013712577
17	0x3dd3d07d	0.103425
18	0xbd81c629	-0.06336624
19	0x3dcecfff	0.10098266
20	0x3e12ddd9	0.1434244
21	0xbdcd3a06	-0.10020833
22	0xbcdc2c16	-0.02687649
23	0x3b5767b0	0.00328682
24	0x3dda41d3	0.10657086
25	0x3dee1911	0.11625875
26	0xbdaf57dd	-0.085616805
27	0x3beaa46e	0.007160715
28	0xbd7ed046	-0.062210344
29	0xbdd24309	-0.10266692
30	0x3d959195	0.07303158
31	0x3e288cdf	0.16459988
32	0x3d8c1224	0.068393975
33	0x3db304bc	0.087411374
34	0x3e07b652	0.13253143
35	0x3cef9acb	0.029248616
36	0x3d981d0b	0.074274145
37	0xbd9b9d05	-0.075983085
38	0x3ba442ff	0.0050128694
39	0xbd9971c8	-0.07492405
40	0x3d10f51e	0.035390012
41	0x3dd12863	0.10212781
42	0xbdf2ec96	-0.118615314
43	0x3db298f5	0.087205805
44	0xbda9938a	-0.08280094
45	0x3c852c71	0.016256543
46	0x3cd0699f	0.025440989
47	0x3d80f9ef	0.06297671
48	0xbd8ea9cf	-0.06965982
49	0x3ceeeea2	0.029166523
50	0x3e7fe1c0	0.2498846
51	0xbe48d796	-0.1961349
52	0xbebef8d3	-0.37299213
53	0xbe10f8d2	-0.14157417
54	0x3e501890	0.2032187
55	0x3ec95e62	0.3932982
56	0x3e7a6531	0.24452664
57	0x3dede991	0.11616815
58	0x3d92cc12	0.071678296
59	0xbe9b0054	-0.30273688
60	0x3d9fed2c	0.07808909
61	0x3ec6564e	0.3873772
62	0x3e567217	0.2094196
63	0xbe233b4d	-0.1594059
64	0x3dc0063d	0.0937619
65	0x3e260779	0.16213788
66	0x3e1b7410	0.15180993
67	0xbea0de3a	-0.31419545
68	0xbdbc15d9	-0.091838546
69	0xbdd27ec0	-0.10278082
70	0xbe7a327b	-0.2443332
71	0xbe5aea71	-0.21378495
72	0x3e9d551e	0.30729002
73	0x3e43023b	0.1904382
74	0x3ca56c45	0.020193228
75	0xbe810b6a	-0.2520402
76	0xbeadc642	-0.3394032
77	0xbe95c77c	-0.29253757
78	0x3eb12f3e	0.34606355
79	0xbdda45f1	-0.106578715
80	0xbe6fd46b	-0.23420875
81	0x3e0a9c71	0.1353624
82	0x3c2fdb92	0.010733502
83	0x3e8bcd5e	0.2730512
84	0x3e23470b	0.1594507
85	0xbeaab509	-0.33341244
86	0x3cc0170f	0.023448495
87	0xbdb506cf	-0.08839189
88	0xbec0ca5e	-0.37654394
89	0xbe2f69aa	-0.17130151
90	0x3d8fb652	0.07017197
91	0xbdca9d80	-0.09893322
92	0x3e217850	0.15768552
93	0xbd835737	-0.06413119
94	0xbdc8b87a	-0.09800811
95	0x3e1de8b2	0.15420797
96	0x3cccb6f0	0.024989575
97	0x3d9f026e	0.07764135
98	0xbe6477aa	-0.22311273
99	0x3d9b2a20	0.07576394
100	0xbd3c1dae	-0.045926742
101	0x3dbb7ec4	0.09155038
102	0x3d6e8ae6	0.058237933
103	0xbdacd64b	-0.08439311
104	0x3c3b16fc	0.011419054
105	0x3cb26a8a	0.021779317
106	0x3df9c3eb	0.121955715
107	0xbcbfaffe	-0.02339935
108	0x3e0e76af	0.13912462
109	0x3dbffc94	0.09374347
110	0xbd7f68c2	-0.062355764
111	0xbd1e86e7	-0.03870287
112	0xbde6597d	-0.11247537
113	0x3d995e8b	0.07488736
114	0xbe4530a7	-0.1925684
115	0xbe419e7b	-0.18908112
116	0x3cc22a3a	0.023701776
117	0xbd654116	-0.055970274
118	0xbe2e4aeb	-0.17020766
119	0x3d39d70e	0.045371108
120	0x3dd10904	0.10206798
121	0x3e09c4f2	0.13454035
122	0xbe013a85	-0.1261998
123	0xbd8aec1d	-0.06783316
124	0x3caa3e7d	0.02078175
125	0x3dae56c5	0.08512644
126	0xbcf07884	-0.029354341
127	0xbd141b22	-0.03615869
128	0x3cbd3987	0.02309872
129	0xbe279466	-0.16365203
130	0xbdd37e2c	-0.103268
131	0xbdadf474	-0.08493891
132	0xbe0784c4	-0.1323424
133	0xbcd388fa	-0.025822151
134	0x3c7f41c3	0.015579644
135	0xbcd32fe5	-0.025779674
136	0xbde8b990	-0.11363518
137	0xbe320747	-0.17385589
138	0xbd3b1df9	-0.04568288
139	0x3e458a33	0.19291
140	0xbc994f1f	-0.018714486
141	0xbd522fa3	-0.05131496
142	0xbe44b845	-0.19210918
143	0xbca9fa84	-0.020749338
144	0xbd4e8866	-0.05042305
145	0xbd9595f4	-0.07303992
146	0xbe07aa38	-0.13248527
147	0xbde19a1d	-0.11015723
148	0x3e39dd9a	0.1815094
149	0x3d3aee2c	0.045637295
150	0xbddaabbd	-0.10677288
151	0xbd253319	-0.040331934
152	0x3d580424	0.052738324
153	0xbe33c3a5	-0.17555101
154	0x3da70886	0.081559226
155	0xbdf8dee5	-0.12151889
156	0x3da0c73e	0.078505024
157	0x3db94d5e	0.0904796
158	0xbd988556	-0.07447307
159	0x3e148b7d	0.14506336
160	0x3da762f1	0.081731685
161	0xbd93dbdb	-0.072196685
162	0x3d42c125	0.04754748
163	0x3dba5ee6	0.09100132
164	0x3d37a51b	0.04483519
165	0x3d99b749	0.07505662
166	0xbd4cc64a	-0.04999379
167	0x3e48f6e9	0.19625439
168	0xbde50a2b	-0.1118358
169	0x3c8a6dd3	0.016898071
170	0xbd96c829	-0.07362396
171	0x3e4505aa	0.19240442
172	0xbe3e6919	-0.18594779
173	0xbc92d3fa	-0.017923344
174	0x3d947591	0.072489865
175	0x3d2ec0a6	0.042664193
176	0x3d114bed	0.0354728
177	0x3d96bad8	0.07359856
178	0x3aa67ba6	0.0012701645
179	0xbe147398	-0.1449722
180	0xbc60294a	-0.013681719
181	0xbd44bb7e	-0.04803037
182	0xbd1a7836	-0.0377123
183	0xbe0befc8	-0.13665688
184	0xbac313b6	-0.0014883194
185	0x3d9afa3c	0.0756726
186	0xbca1c31a	-0.019746352
187	0x3d1557f3	0.036460828
188	0xbcac9b9c	-0.021070294
189	0x3e235ac4	0.15952593
190	0x3e1b0d9b	0.15141909
191	0x3d0bc50c	0.034123465
192	0x3d1c93f6	0.038227044
193	0xbdc13a09	-0.094348975
194	0xbdfb0693	-0.12257113
195	0xbcc5d0f0	-0.02414748
196	0xbe07e7b4	-0.13271981
197	0x3b98333b	0.004644779
198	0x3c999baf	0.018750994
199	0xbdac9e5d	-0.08428643
200	0x3e04b0d8	0.12958086
201	0x3d1ecb6b	0.038768213
202	0xb807a43d	-3.2339467e-05
203	0xbc95c145	-0.018280635
204	0xbc0ce327	-0.008599079
205	0xbd1389a3	-0.036019932
206	0xbd35e93d	-0.044411886
207	0xbde4ae99	-0.11166114
208	0x3d350f14	0.044203833
209	0x3d490913	0.04908092
210	0x3d9d549c	0.076821536
211	0x3e2978b6	0.16549954
212	0xbe183a77	-0.14866053
213	0xbe457047	-0.19281112
214	0xbe076c0a	-0.13224807
215	0xbcef60be	-0.029220935
216	0x3dfc2092	0.123109
217	0xbdf0f6c9	-0.117658205
218	0xbc855589	-0.016276138
219	0xbc605fde	-0.0136947315
220	0x3c50cf44	0.0127447285
221	0xbced1c38	-0.02894412
222	0xbd3f38ca	-0.046685018
223	0x3e13e1ac	0.14441556
224	0xbe2583da	-0.16163579
225	0x3cd46779	0.025928246
226	0x3aa13f73	0.0012302235
227	0x3d1ee307	0.03879073
228	0x3df3659b	0.11884614
229	0x3ceea569	0.029131608
230	0x3b3946ef	0.002827104
231	0xbdd72a18	-0.105060756
232	0xbdc5e24e	-0.09662305
233	0x3d83e686	0.06440453
234	0xbc4d4e81	-0.012530924
235	0xbdcfca93	-0.1014606
236	0xbe210663	-0.15725093
237	0xbd9b2b16	-0.07576577
238	0xbcc06b7c	-0.023488753
239	0x3dab3c8a	0.08361156
240	0xbc57098b	-0.013124834
241	0x3dfd7670	0.12376106
242	0xbd011c11	-0.031520907
243	0xbe17f61c	-0.14839977
244	0xbc7b28e0	-0.01532957
245	0x3d88680a	0.06660469
246	0x3d927328	0.071508706
247	0xbd9c250d	-0.076242544
248	0xbd042878	-0.032265157
249	0x3e172095	0.14758523
250	0x3dbd1f99	0.092345424
251	0x3ddea42f	0.10871159
252	0x3d5511eb	0.05201904
253	0xbe234a92	-0.15946415
254	0xbe773df0	-0.24144721
255	0xbd7666e7	-0.06015673

model.gcn_layers.0.edge_feat.V.bias f4 [50]
0	0x3c60b056	0.013713917
1	0xbf16b18d	-0.5886467
2	0xbc937aef	-0.018002955
3	0x3ea14cb7	0.3150384
4	0x3cd576fb	0.02605771
5	0xbf044b66	-0.5167755
6	0xbe9be63b	-0.3044909
7	0x3bdba298	0.0067027323
8	0x3db30850	0.0874182
9	0xbeb774a5	-0.3583118
10	0x3daec432	0.08533515
11	0x3d0bfa58	0.034174293
12	0x3db20274	0.08691874
13	0x3e0aecc4	0.13566881
14	0xbd030dc3	-0.031995546
15	0xbe0f6421	-0.1400304
16	0xbdcbf54b	-0.09958895
17	0x3dbdc8d5	0.09266821
18	0xbdc67aeb	-0.096914135
19	0x3da0aac2	0.078450695
20	0x3eb75f31	0.35814813
21	0xbe70915b	-0.23492949
22	0x3e6b9413	0.23005705
23	0xbde32926	-0.11091833
24	0xbf9392ad	-1.1529137
25	0xbf303b0b	-0.6884009
26	0xbf048564	-0.5176604
27	0x3e2f7fe2	0.17138627
28	0x3e13c083	0.14428906
29	0xbd322d55	-0.043500263
30	0x3e675eda	0.22594777
31	0xbe1fcab2	-0.15604666
32	0x3ce8efd5	0.028434673
33	0xbefb661f	-0.4910135
34	0xbe23ade2	-0.159843
35	0x3e82634d	0.25466385
36	0xbbcd1aa4	-0.0062592793
37	0x3ebf7b8a	0.3739894
38	0xbd8dcc34	-0.06923714
39	0xbe40f9ab	-0.18845241
40	0xbe84661f	-0.25859162
41	0xbf2ebac2	-0.6825372
42	0x3d66b87c	0.05632828
43	0x3e4e37cb	0.20138471
44	0xbe89451f	-0.26810548
45	0xbef74a08	-0.4829867
46	0x3e8b1f3c	0.27172267
47	0xbe5e4a4e	-0.21708032
48	0x3e79b035	0.24383624
49	0x3f018b60	0.50603294

model.gcn_layers.0.bn_node.batch_norm.weight f4 [50]
0	0x3f5b04de	0.855543
1	0x3f8c9d46	1.0985496
2	0x3f688bb7	0.9083819
3	0x3f80f28f	1.0074023
4	0x3f6c0b38	0.9220462
5	0x3f7f7f1e	0.9980334
6	0x3f8516bf	1.0397567
7	0x3f54404a	0.829106
8	0x3f47fd44	0.7812083
9	0x3fa91346	1.3209007
10	0x3f646823	0.892214
11	0x3f4e4031	0.805667
12	0x3f38c21c	0.7217119
13	0x3f6e1b78	0.93010664
14	0x3f8a36a9	1.0797931
15	0x3f6e661d	0.9312456
16	0x3f7f8c90	0.99823856
17	0x3f5720d9	0.84034497
18	0x3f6825e7	0.90682834
19	0x3f57498a	0.84096587
20	0x3f578a0f	0.84195036
21	0x3f4ccda1	0.80001265
22	0x3f496a41	0.78677756
23	0x3f575ea0	0.8412876
24	0x3fa7f791	1.3122426
25	0x3f87fd8e	1.0624254
26	0x3f757308	0.9587865
27	0x3f84c414	1.0372338
28	0x3f737309	0.95097405
29	0x3f51991d	0.8187426
30	0x3f595049	0.8488813
31	0x3f56c342	0.8389169
32	0x3f6be2fc	0.92143226
33	0x3f828cbc	1.0199199
34	0x3f5aa999	0.85415035
35	0x3f4862fa	0.78276026
36	0x3f32f56e	0.69905746
37	0x3f717e69	0.9433351
38	0x3f7a23cf	0.9771089
39	0x3f75eed4	0.9606755
40	0x3f5327fa	0.82482874
41	0x3f81eda9	1.0150653
42	0x3f575f35	0.8412965
43	0x3f6fba65	0.9364379
44	0x3f6fbbd3	0.9364597
45	0x3fa94462	1.3223994
46	0x3f5cddd0	0.8627596
47	0x3f860976	1.0471637
48	0x3f704f37	0.9387087
49	0x3f4f6ebd	0.8102835

model.gcn_layers.0.bn_node.batch_norm.bias f4 [50]
0	0x3d963582	0.073344246
1	0x3d813f96	0.06310956
2	0x3e09dc0d	0.13462849
3	0x3dbb37a0	0.09141469
4	0xbe037cbd	-0.12840553
5	0xbd2a5897	-0.041588392
6	0x3e16e9a8	0.1473757
7	0x3e244ef7	0.16045748
8	0x3c35f32c	0.01110534
9	0x3e8fceb0	0.28087378
10	0x3d800bd4	0.06252256
11	0xbe0f7264	-0.1400848
12	0xbe18afe7	-0.14910851
13	0xbd8061cf	-0.062686555
14	0x3d918620	0.071056604
15	0x3de364fd	0.11103246
16	0x3dcf7876	0.10130398
17	0x3def9f1c	0.117002696
18	0x3e07b73f	0.13253497
19	0xbdb55145	-0.088533916
20	0x3e19237d	0.14954944
21	0xbe131357	-0.14362846
22	0x3e45c61f	0.19313858
23	0x3dbe4cb2	0.09291972
24	0x3ec1e2a3	0.37868223
25	0x3e0c0db5	0.13677104
26	0xbdfb5d94	-0.12273708
27	0xbcd972b8	-0.02654396
28	0xbddb3fe4	-0.107055455
29	0x3bab1ec4	0.0052221734
30	0xbc12b363	-0.008953902
31	0xbe4230f9	-0.18963994
32	0x3cdcd848	0.0269586
33	0x3e3f728f	0.18696044
34	0x3e13459e	0.14382026
35	0x3dad2bb0	0.08455598
36	0x3c40e870	0.011774167
37	0x3d44fb17	0.04809102
38	0x3d5e451e	0.054265134
39	0x3d45ee46	0.04832294
40	0xbd1e3ab6	-0.03863021
41	0x3dbe1e0a	0.09283073
42	0x3e3b1356	0.18269095
43	0xbdac7ea6	-0.08422594
44	0x3ddc289c	0.10749933
45	0x3eff2886	0.49835604
46	0x3d6075cd	0.054799844
47	0x3e488656	0.19582495
48	0x3d308cbc	0.043102965
49	0xbe7c4976	-0.24637398

model.gcn_layers.0.bn_edge.batch_norm.weight f4 [50]
0	0x3f76bd03	0.9638216
1	0x3f735653	0.95053595
2	0x3f5adf4c	0.85496974
3	0x3f786f87	0.9704518
4	0x3f6abbc7	0.91692775
5	0x3f553a13	0.8329174
6	0x3f78825f	0.9707393
7	0x3f5823bd	0.8442953
8	0x3f63e977	0.89028114
9	0x3f6e0e41	0.929905
10	0x3f83d0ac	1.0298057
11	0x3f7d8cbc	0.9904287
12	0x3f817cec	1.0116248
13	0x3f64a73c	0.8931768
14	0x3f671c65	0.902777
15	0x3f6e91e8	0.93191385
16	0x3f6be1ec	0.92141604
17	0x3f936478	1.1515036
18	0x3f730ba3	0.9493963
19	0x3f6e7616	0.93148935
20	0x3f694568	0.9112153
21	0x3f891698	1.071002
22	0x3f66f1a3	0.9021246
23	0x3f8003e2	1.0001185
24	0x3f77858e	0.96688163
25	0x3f6472d8	0.8923774
26	0x3f71950a	0.9436804
27	0x3f7dd51a	0.9915329
28	0x3f87c330	1.0606441
29	0x3f6a685a	0.9156548
30	0x3f82af15	1.0209681
31	0x3f68437e	0.90727985
32	0x3f72a713	0.94786185
33	0x3f7c5f67	0.9858307
34	0x3f5c2d30	0.8600645
35	0x3f763885	0.9617999
36	0x3f670ca0	0.9025364
37	0x3f536a35	0.82583934
38	0x3f755708	0.95835924
39	0x3f89d97a	1.0769494
40	0x3f745042	0.95434964
41	0x3f762d80	0.9616318
42	0x3f608451	0.877019
43	0x3f819cdb	1.0125993
44	0x3f6b1e2a	0.918429
45	0x3f99638f	1.1983508
46	0x3f80a930	1.0051632
47	0x3f7c6813	0.98596305
48	0x3f8b93b9	1.0904456
49	0x3f65914f	0.8967485

model.gcn_layers.0.bn_edge.batch_norm.bias f4 [50]
0	0xbe11e7f6	-0.14248642
1	0xbcfc0504	-0.03076411
2	0xbe1db5eb	-0.15401427
3	0x3c921c84	0.017835863
4	0xbe8beb42	-0.27327925
5	0xbdcb2403	-0.09918978
6	0xbde0a6de	-0.109693274
7	0x3cf358b0	0.029705375
8	0xbea816d0	-0.32829905
9	0xbd9add1f	-0.07561707
10	0x3dc331a0	0.095309496
11	0xbd7a4f5f	-0.06111085
12	0x3d524e4a	0.051344194
13	0xbdf13329	-0.11777336
14	0xbdfe1842	-0.124069706
15	0x3a570eb6	0.0008203791
16	0xbd13fb42	-0.03612829
17	0x3ce6a08b	0.028152725
18	0xbe6c69a1	-0.23087169
19	0xbe2c83b0	-0.1684711
20	0xbde708a3	-0.11280944
21	0xbe600930	-0.21878505
22	0xbd0df897	-0.034660902
23	0x3da22883	0.07917883
24	0xbe02d515	-0.12776597
25	0xbd7c1a5c	-0.061548576
26	0x3d54138b	0.05177645
27	0xbb48499f	-0.003056146
28	0xbe1f4174	-0.15552312
29	0xbd8ce245	-0.06879095
30	0xbe7c0e13	-0.24614744
31	0xbe10e0c0	-0.14148235
32	0xbdb1742a	-0.08664735
33	0xbe173499	-0.14766158
34	0xbe0d271e	-0.13784453
35	0xbd1039a1	-0.03521121
36	0xbe23e429	-0.16005005
37	0xbe253a9e	-0.16135642
38	0x3c8f8b1b	0.017522385
39	0x3d8ae2c6	0.06781535
40	0xbe3df296	-0.1854957
41	0xbe45bf07	-0.19311152
42	0xbd7ec8b6	-0.06220313
43	0xbdcdfe0d	-0.10058222
44	0xbe190427	-0.1494299
45	0xbe13cbdf	-0.1443324
46	0x3d51014f	0.05102664
47	0x3cc93cb4	0.024565078
48	0x3dbd14f5	0.09232513
49	0xbd977670	-0.07395637

model.gcn_layers.1.node_feat.U.weight f4 [50, 50]
0	0x3d5ededb	0.05441175
1	0x3bebba2b	0.007193824
2	0xbd977e52	-0.073971406
3	0x3e063ef2	0.13109949
4	0x3e215aef	0.15757345
5	0xbe443aaa	-0.19163004
6	0x3e444f5c	0.19170898
7	0xbd429a30	-0.047510326
8	0xbab987a8	-0.0014154809
9	0xbe513d3f	-0.2043352
10	0xbe160f38	-0.14654243
11	0x3e158132	0.14600065
12	0x3d1c780c	0.038200423
13	0xbdb9eedf	-0.09078764
14	0xbe8ad9ef	-0.27119395
15	0xba88c47c	-0.0010434533
16	0x3dbbd3bb	0.09171244
17	0xbe07aa12	-0.1324847
18	0xbd91c9f3	-0.07118597
19	0xbc7640d5	-0.015030106
20	0x3dc54bce	0.09633599
21	0xbe48e77b	-0.19619553
22	0x3dc31eaa	0.09527333
23	0x3d7ca4ab	0.061680477
24	0x3cae97c8	0.02131261
25	0x3d9259a3	0.07146003
26	0xbe823426	-0.2543041
27	0x3d6fb35a	0.058520652
28	0xbe6a9302	-0.22907642
29	0xbe3bf752	-0.18356064
30	0xbe3de57f	-0.18544577
31	0xbcf61eb8	-0.030043945
32	0xbe2321c4	-0.1593085
33	0x3db308cc	0.08741912
34	0xbe7b163f	-0.24520205
35	0xbdd57acc	-0.10423812
36	0x3b91be91	0.004447766
37	0x3d61f562	0.055165656
38	0xbd877123	-0.06613376
39	0x3caff55f	0.021479307
40	0x3d2b1806	0.041770957
41	0xbe35d2ad	-0.17756148
42	0xbdb53195	-0.08847348
43	0xbd411a65	-0.047144312
44	0xbdcc2813	-0.09968581
45	0x3d022c9d	0.031780828
46	0xbca980f1	-0.020691367
47	0xbe0952d3	-0.13410501
48	0xbd903e08	-0.070430815
49	0xbd3e5961	-0.046471957
50	0xbd9d4e95	-0.07681004
51	0xbd71040f	-0.05884176
52	0x3e2069cf	0.15665363
53	0xbc9743e2	-0.018464986
54	0x3c48f310	0.012264982
55	0x3bc11d53	0.0058933883
56	0x3caca88a	0.02107646
57	0xbd6bf391	-0.05760533
58	0x3e2cfcf6	0.16893372
59	0xbe8eee9a	-0.27916414
60	0xbdbb0ab5	-0.091329016
61	0xbd613263	-0.054979693
62	0x3d82f7a5	0.06394891
63	0xbd9b5795	-0.07585064
64	0x3dcd9a7c	0.10039231
65	0x3e3a1973	0.1817377
66	0xbcae92cd	-0.021310234
67	0xbddaf29a	-0.10690804
68	0x3c39c853	0.011339265
69	0xbd2ed2f7	-0.04268166
70	0x3dc4eb7c	0.096152276
71	0x3db99491	0.0906154
72	0xbdb3b153	-0.08774056
73	0xbd5b10d0	-0.05348283
74	0xbd8576dd	-0.06516812
75	0x3d39288a	0.045204677
76	0xbd53b535	-0.051686484
77	0x3dbe1352	0.09281029
78	0xbd4d67a9	-0.050147686
79	0x3d4cc9ec	0.049997255
80	0xbc09c0b0	-0.008407757
81	0xbd85633b	-0.06513067
82	0xbdaa2e7b	-0.08309647
83	0xbd9a5511	-0.075357564
84	0xbd8948e0	-0.06703353
85	0x3db1879b	0.08668443
86	0xbdb136ac	-0.08653006
87	0x3d8be92c	0.068315834
88	0x3d5e6085	0.054291267
89	0xbcc51dfb	-0.024062147
90	0x3d780aa3	0.06055702
91	0x3c4c7071	0.01247798
92	0x3da8a915	0.08235375
93	0xbd87d37a	-0.06632133
94	0x3cb7a686	0.022418272
95	0xbe7be742	-0.24599937
96	0x3d07cba2	0.033153184
97	0xbd3b7bf5	-0.04577251
98	0xbc42466f	-0.011857613
99	0xbd12ac51	-0.035808865
100	0x3d60284b	0.054725926
101	0x3df5ad52	0.11995949
102	0xbe43eb24	-0.19132668
103	0x3aa9fc99	0.0012968957
104	0x3dac4b14	0.084127575
105	0x3e3b9f60	0.18322515
106	0xbcf9a2ad	-0.030473078
107	0xbdcdb568	-0.10044366
108	0xbe0b5c9a	-0.13609543
109	0x3e85c800	0.2612915
110	0xbdc19e05	-0.09453968
111	0xbd82c81d	-0.06385825
112	0x3d5377d3	0.051627945
113	0x3d179095	0.03700312
114	0x3d6c0773	0.05762429
115	0x3d5f55a1	0.05452502
116	0xbd780086	-0.060547374
117	0xbe099f24	-0.13439614
118	0x3dcca240	0.09991884
119	0x3c39b3c4	0.011334363
120	0x3d660bb7	0.056163516
121	0x3d420ea2	0.047377236
122	0xbe08f966	-0.13376388
123	0x3d0f1c0a	0.03493885
124	0x3e837761	0.25677016
125	0x3cbeadba	0.023276199
126	0xbd317954	-0.0433286
127	0xbe13b825	-0.14425714
128	0x3e1ce60a	0.15322128
129	0xbde357b3	-0.11100712
130	0x3e359fa6	0.17736682
131	0x3e299346	0.16560087
132	0x3e0113fb	0.12605278
133	0x3cbc6f49	0.023002284
134	0x3e0e88ae	0.13919327
135	0xbdfe3435	-0.124123015
136	0xbd641d88	-0.055692226
137	0x3d7fca96	0.06244906
138	0x3dd85157	0.10562389
139	0xbd2d369e	-0.042288415
140	0x3d0fd091	0.035111014
141	0x3dc352ef	0.09537303
142	0x3df52288	0.11969477
143	0xbd483362	-0.048877127
144	0x3dd65cca	0.10466917
145	0x3e02b8d9	0.12765826
146	0xbd54568d	-0.051840354
147	0x3c535f3b	0.012901123
148	0x3dda373c	0.10655066
149	0xbe25451d	-0.16139646
150	0xbd556c47	-0.052105214
151	0x3b544cbb	0.0032394368
152	0xbd9bcb29	-0.07607109
153	0xbd101b48	-0.035182267
154	0xbd1707e3	-0.036872756
155	0x3def62ff	0.11688804
156	0xbd2352c8	-0.03987387
157	0x3e39f55e	0.18160006
158	0x3db1a829	0.08674652
159	0x3e98c7bc	0.29839885
160	0x3db700e5	0.089357175
161	0xbcb9bd67	-0.022673322
162	0xbbe9d849	-0.007136379
163	0xbd7f5e05	-0.062345523
164	0xbce7ce53	-0.028296625
165	0x3c41d729	0.011831083
166	0xbe3edbec	-0.18638581
167	0xbd2d919f	-0.042375203
168	0xbcbddba7	-0.023176027
169	0x3e038e32	0.12847212
170	0xbca5e534	-0.020250894
171	0x3d552659	0.052038524
172	0xbce7cb4e	-0.028295185
173	0x3e11e494	0.14247352
174	0x3d092ac5	0.033488054
175	0x3cc6ba3a	0.024258722
176	0x3e34a06d	0.17639323
177	0x3d586543	0.052830946
178	0x3d028427	0.03186431
179	0x3d375890	0.044762194
180	0xbd089d8c	-0.033353373
181	0x3ccdc005	0.025115976
182	0xbb24773b	-0.002509548
183	0x3b5d18de	0.0033736746
184	0x3cca85e3	0.024722045
185	0xbbdb1159	-0.0066854176
186	0xbd955204	-0.07291034
187	0xbdb07898	-0.086167514
188	0xbe26e2d2	-0.16297463
189	0xbdd53541	-0.10410548
190	0x3de46e62	0.11153866
191	0xbad4a0b9	-0.0016222215
192	0xbd68ffe6	-0.05688467
193	0x3dafb4d8	0.08579415
194	0x3dc085a6	0.094004914
195	0xbe0999c3	-0.13437562
196	0xbc2928a0	-0.010324627
197	0xbcaec41b	-0.021333745
198	0xbd24d1c0	-0.040239096
199	0x3dcf66b1	0.10127009
200	0xbda81909	-0.082079
201	0x3e1351b0	0.1438663
202	0xbd6ce349	-0.057833944
203	0xbd77b9f8	-0.060480088
204	0xbdcdd454	-0.10050264
205	0x3e0de982	0.13858607
206	0xbd83a9ec	-0.064288944
207	0xbc6dea29	-0.01452116
208	0xbd972088	-0.07379252
209	0x3c857ac3	0.016293889
210	0xbd1b0597	-0.037847128
211	0x3d540537	0.051762786
212	0xbdd8410c	-0.10559282
213	0xbdf12495	-0.117745556
214	0x3d6e0ffd	0.058120716
215	0xbe12b7ce	-0.14327928
216	0xbc62d6db	-0.013845171
217	0xbdba902b	-0.09109529
218	0xbc2af396	-0.010434052
219	0xbd953b50	-0.072867036
220	0xbd0084a3	-0.031376492
221	0x3d5f3311	0.05449206
222	0xbd4aee47	-0.049543645
223	0xbd1a5d35	-0.037686545
224	0x3d91870a	0.07105835
225	0x3e3904be	0.18068215
226	0xbdf379f1	-0.11888493
227	0xbdbed2de	-0.093175635
228	0xbd1389f2	-0.036020227
229	0xbddb1125	-0.106966294
230	0xbd677b99	-0.056514356
231	0xbd27ff56	-0.04101499
232	0xbe0570d8	-0.13031328
233	0xbd971b0d	-0.073782064
234	0x3dee633c	0.11640021
235	0x3e07e597	0.13271175
236	0xbd99a226	-0.075016305
237	0x3d9113df	0.07083868
238	0xbc98f30a	-0.018670578
239	0x3c8216d1	0.01588002
240	0x3d2b51d1	0.041826073
241	0x3c43338f	0.011914148
242	0x3d7a755b	0.061147075
243	0x3cff390e	0.031155135
244	0x3c8d1fe5	0.017227123
245	0x3d635685	0.055502433
246	0xbd89351f	-0.06699585
247	0xbd2162ff	-0.03940105
248	0x3c9b3318	0.018945262
249	0xbbf233ab	-0.007391413
250	0xbdd964d0	-0.106149316
251	0xbe0eafc8	-0.13934243
252	0xbe7a3d81	-0.24437524
253	0xbc9925ac	-0.018694721
254	0xbd498c9d	-0.049206365
255	0xbccf5f43	-0.025313979
